STEdgeAI Core v9.0.0-19802
Created date          : 2024-07-03 22:05:48
Parameters            : analyze --target stm32h7 --name network -m D:/Documents/STM32H7-Aphasia-Helper/project/AI-Data/mcunet-512kb-2mb_imagenet.tflite --compression high --verbosity 1 --allocate-inputs -O ram --allocate-outputs --workspace D:/temp/mxAI_workspace3538639597400004588716628846361935 --output D:/Documents/STM32H7-Aphasia-Helper/project/AI-Data

Exec/report summary (analyze)
----------------------------------------------------------------------------------------------------------------
model file         :   D:\Documents\STM32H7-Aphasia-Helper\project\AI-Data\mcunet-512kb-2mb_imagenet.tflite     
type               :   tflite                                                                                   
c_name             :   network                                                                                  
compression        :   high                                                                                     
options            :   allocate-inputs, allocate-outputs                                                        
optimization       :   ram                                                                                      
target/series      :   stm32h7                                                                                  
workspace dir      :   D:\temp\mxAI_workspace3538639597400004588716628846361935                                 
output dir         :   D:\Documents\STM32H7-Aphasia-Helper\project\AI-Data                                      
model_fmt          :   ss/sa per channel                                                                        
model_name         :   mcunet512kb2mb_imagenet                                                                  
model_hash         :   0xc7c331543379521d032e43d9b4748e69                                                       
params #           :   1,721,936 items (1.68 MiB)                                                               
----------------------------------------------------------------------------------------------------------------
input 1/1          :   'input', int8(1x160x160x3), 75.00 KBytes, QLinear(0.007843138,-1,int8), activations      
output 1/1         :   'conv2d_113', int8(1x1x1x1000), 1000 Bytes, QLinear(0.175934955,-46,int8), activations   
macc               :   126,047,704                                                                              
weights (ro)       :   1,757,048 B (1.68 MiB) (1 segment) / -5,130,696(-74.5%) vs float model                   
activations (rw)   :   318,676 B (311.21 KiB) (1 segment) *                                                     
ram (total)        :   318,676 B (311.21 KiB) = 318,676 + 0 + 0                                                 
----------------------------------------------------------------------------------------------------------------
(*) 'input'/'output' buffers can be used from the activations buffer

Model name - mcunet512kb2mb_imagenet
------ --------------------------------------------- ----------------------- ----------------- ----------- -------------- --- ------------------ --------------------- ------------------ 
m_id   layer (type,original)                         oshape                  param/size               macc   connected to   | c_size             c_macc                c_type             
------ --------------------------------------------- ----------------------- ----------------- ----------- -------------- --- ------------------ --------------------- ------------------ 
0      input (Input, )                               [b:1,h:160,w:160,c:3]                                                  | +992(+100.0%)      +5,529,632(+100.0%)   Conv2D_[0]         
       pad_0 (Pad, PAD)                              [b:1,h:162,w:162,c:3]                                          input   |                                          
------ --------------------------------------------- ----------------------- ----------------- ----------- -------------- --- ------------------ --------------------- ------------------ 
1      conv2d_1 (Conv2D, CONV_2D)                    [b:1,h:80,w:80,c:32]    896/992             5,529,632          pad_0   | -992(-100.0%)      -5,529,632(-100.0%)   
       nl_1_nl (Nonlinearity, CONV_2D)               [b:1,h:80,w:80,c:32]                          204,800       conv2d_1   |                    -204,800(-100.0%)     
------ --------------------------------------------- ----------------------- ----------------- ----------- -------------- --- ------------------ --------------------- ------------------ 
2      pad_2 (Pad, PAD)                              [b:1,h:82,w:82,c:32]                                         nl_1_nl   | +416(+100.0%)      +1,843,232(+100.0%)   Conv2D_[1]         
------ --------------------------------------------- ----------------------- ----------------- ----------- -------------- --- ------------------ --------------------- ------------------ 
3      conv2d_3 (Conv2D, DEPTHWISE_CONV_2D)          [b:1,h:80,w:80,c:32]    320/416             1,843,232          pad_2   | -416(-100.0%)      -1,843,232(-100.0%)   
       nl_3_nl (Nonlinearity, DEPTHWISE_CONV_2D)     [b:1,h:80,w:80,c:32]                          204,800       conv2d_3   |                    -204,800(-100.0%)     
------ --------------------------------------------- ----------------------- ----------------- ----------- -------------- --- ------------------ --------------------- ------------------ 
5      conv2d_5 (Conv2D, CONV_2D)                    [b:1,h:80,w:80,c:16]    528/576             3,276,816        nl_3_nl   |                                          Conv2D_[2]         
------ --------------------------------------------- ----------------------- ----------------- ----------- -------------- --- ------------------ --------------------- ------------------ 
7      conv2d_7 (Conv2D, CONV_2D)                    [b:1,h:80,w:80,c:48]    816/960             4,915,248       conv2d_5   |                                          Conv2D_[3]         
       nl_7_nl (Nonlinearity, CONV_2D)               [b:1,h:80,w:80,c:48]                          307,200       conv2d_7   |                    -307,200(-100.0%)     
------ --------------------------------------------- ----------------------- ----------------- ----------- -------------- --- ------------------ --------------------- ------------------ 
8      pad_8 (Pad, PAD)                              [b:1,h:86,w:86,c:48]                                         nl_7_nl   | +2,544(+100.0%)    +3,763,248(+100.0%)   Conv2D_[4]         
------ --------------------------------------------- ----------------------- ----------------- ----------- -------------- --- ------------------ --------------------- ------------------ 
9      conv2d_9 (Conv2D, DEPTHWISE_CONV_2D)          [b:1,h:40,w:40,c:48]    2,400/2,544         3,763,248          pad_8   | -2,544(-100.0%)    -3,763,248(-100.0%)   
       nl_9_nl (Nonlinearity, DEPTHWISE_CONV_2D)     [b:1,h:40,w:40,c:48]                           76,800       conv2d_9   |                    -76,800(-100.0%)      
------ --------------------------------------------- ----------------------- ----------------- ----------- -------------- --- ------------------ --------------------- ------------------ 
11     conv2d_11 (Conv2D, CONV_2D)                   [b:1,h:40,w:40,c:24]    1,176/1,248         1,843,224        nl_9_nl   |                                          Conv2D_[5]         
------ --------------------------------------------- ----------------------- ----------------- ----------- -------------- --- ------------------ --------------------- ------------------ 
13     conv2d_13 (Conv2D, CONV_2D)                   [b:1,h:40,w:40,c:120]   3,000/3,360         4,608,120      conv2d_11   |                                          Conv2D_[6]         
       nl_13_nl (Nonlinearity, CONV_2D)              [b:1,h:40,w:40,c:120]                         192,000      conv2d_13   |                    -192,000(-100.0%)     
------ --------------------------------------------- ----------------------- ----------------- ----------- -------------- --- ------------------ --------------------- ------------------ 
14     pad_14 (Pad, PAD)                             [b:1,h:42,w:42,c:120]                                       nl_13_nl   | +1,560(+100.0%)    +1,728,120(+100.0%)   Conv2D_[7]         
------ --------------------------------------------- ----------------------- ----------------- ----------- -------------- --- ------------------ --------------------- ------------------ 
15     conv2d_15 (Conv2D, DEPTHWISE_CONV_2D)         [b:1,h:40,w:40,c:120]   1,200/1,560         1,728,120         pad_14   | -1,560(-100.0%)    -1,728,120(-100.0%)   
       nl_15_nl (Nonlinearity, DEPTHWISE_CONV_2D)    [b:1,h:40,w:40,c:120]                         192,000      conv2d_15   |                    -192,000(-100.0%)     
------ --------------------------------------------- ----------------------- ----------------- ----------- -------------- --- ------------------ --------------------- ------------------ 
17     conv2d_17 (Conv2D, CONV_2D)                   [b:1,h:40,w:40,c:24]    2,904/2,976         4,608,024       nl_15_nl   |                                          Conv2D_[8]         
------ --------------------------------------------- ----------------------- ----------------- ----------- -------------- --- ------------------ --------------------- ------------------ 
18     eltwise_18 (Eltwise, ADD)                     [b:1,h:40,w:40,c:24]                           38,400      conv2d_17   |                                          Eltwise/add_[9]    
                                                                                                                conv2d_11   | 
------ --------------------------------------------- ----------------------- ----------------- ----------- -------------- --- ------------------ --------------------- ------------------ 
20     conv2d_20 (Conv2D, CONV_2D)                   [b:1,h:40,w:40,c:96]    2,400/2,688         3,686,496     eltwise_18   |                                          Conv2D_[10]        
       nl_20_nl (Nonlinearity, CONV_2D)              [b:1,h:40,w:40,c:96]                          153,600      conv2d_20   |                    -153,600(-100.0%)     
------ --------------------------------------------- ----------------------- ----------------- ----------- -------------- --- ------------------ --------------------- ------------------ 
21     pad_21 (Pad, PAD)                             [b:1,h:44,w:44,c:96]                                        nl_20_nl   | +2,784(+100.0%)    +3,840,096(+100.0%)   Conv2D_[11]        
------ --------------------------------------------- ----------------------- ----------------- ----------- -------------- --- ------------------ --------------------- ------------------ 
22     conv2d_22 (Conv2D, DEPTHWISE_CONV_2D)         [b:1,h:40,w:40,c:96]    2,496/2,784         3,840,096         pad_21   | -2,784(-100.0%)    -3,840,096(-100.0%)   
       nl_22_nl (Nonlinearity, DEPTHWISE_CONV_2D)    [b:1,h:40,w:40,c:96]                          153,600      conv2d_22   |                    -153,600(-100.0%)     
------ --------------------------------------------- ----------------------- ----------------- ----------- -------------- --- ------------------ --------------------- ------------------ 
24     conv2d_24 (Conv2D, CONV_2D)                   [b:1,h:40,w:40,c:24]    2,328/2,400         3,686,424       nl_22_nl   |                                          Conv2D_[12]        
------ --------------------------------------------- ----------------------- ----------------- ----------- -------------- --- ------------------ --------------------- ------------------ 
25     eltwise_25 (Eltwise, ADD)                     [b:1,h:40,w:40,c:24]                           38,400      conv2d_24   |                                          Eltwise/add_[13]   
                                                                                                               eltwise_18   | 
------ --------------------------------------------- ----------------------- ----------------- ----------- -------------- --- ------------------ --------------------- ------------------ 
27     conv2d_27 (Conv2D, CONV_2D)                   [b:1,h:40,w:40,c:120]   3,000/3,360         4,608,120     eltwise_25   |                                          Conv2D_[14]        
       nl_27_nl (Nonlinearity, CONV_2D)              [b:1,h:40,w:40,c:120]                         192,000      conv2d_27   |                    -192,000(-100.0%)     
------ --------------------------------------------- ----------------------- ----------------- ----------- -------------- --- ------------------ --------------------- ------------------ 
28     pad_28 (Pad, PAD)                             [b:1,h:46,w:46,c:120]                                       nl_27_nl   | +6,360(+100.0%)    +2,352,120(+100.0%)   Conv2D_[15]        
------ --------------------------------------------- ----------------------- ----------------- ----------- -------------- --- ------------------ --------------------- ------------------ 
29     conv2d_29 (Conv2D, DEPTHWISE_CONV_2D)         [b:1,h:20,w:20,c:120]   6,000/6,360         2,352,120         pad_28   | -6,360(-100.0%)    -2,352,120(-100.0%)   
       nl_29_nl (Nonlinearity, DEPTHWISE_CONV_2D)    [b:1,h:20,w:20,c:120]                          48,000      conv2d_29   |                    -48,000(-100.0%)      
------ --------------------------------------------- ----------------------- ----------------- ----------- -------------- --- ------------------ --------------------- ------------------ 
31     conv2d_31 (Conv2D, CONV_2D)                   [b:1,h:20,w:20,c:40]    4,840/4,960         1,920,040       nl_29_nl   |                                          Conv2D_[16]        
------ --------------------------------------------- ----------------------- ----------------- ----------- -------------- --- ------------------ --------------------- ------------------ 
33     conv2d_33 (Conv2D, CONV_2D)                   [b:1,h:20,w:20,c:160]   6,560/7,040         2,560,160      conv2d_31   |                                          Conv2D_[17]        
       nl_33_nl (Nonlinearity, CONV_2D)              [b:1,h:20,w:20,c:160]                          64,000      conv2d_33   |                    -64,000(-100.0%)      
------ --------------------------------------------- ----------------------- ----------------- ----------- -------------- --- ------------------ --------------------- ------------------ 
34     pad_34 (Pad, PAD)                             [b:1,h:22,w:22,c:160]                                       nl_33_nl   | +2,080(+100.0%)    +576,160(+100.0%)     Conv2D_[18]        
------ --------------------------------------------- ----------------------- ----------------- ----------- -------------- --- ------------------ --------------------- ------------------ 
35     conv2d_35 (Conv2D, DEPTHWISE_CONV_2D)         [b:1,h:20,w:20,c:160]   1,600/2,080           576,160         pad_34   | -2,080(-100.0%)    -576,160(-100.0%)     
       nl_35_nl (Nonlinearity, DEPTHWISE_CONV_2D)    [b:1,h:20,w:20,c:160]                          64,000      conv2d_35   |                    -64,000(-100.0%)      
------ --------------------------------------------- ----------------------- ----------------- ----------- -------------- --- ------------------ --------------------- ------------------ 
37     conv2d_37 (Conv2D, CONV_2D)                   [b:1,h:20,w:20,c:40]    6,440/6,560         2,560,040       nl_35_nl   |                                          Conv2D_[19]        
------ --------------------------------------------- ----------------------- ----------------- ----------- -------------- --- ------------------ --------------------- ------------------ 
38     eltwise_38 (Eltwise, ADD)                     [b:1,h:20,w:20,c:40]                           16,000      conv2d_37   |                                          Eltwise/add_[20]   
                                                                                                                conv2d_31   | 
------ --------------------------------------------- ----------------------- ----------------- ----------- -------------- --- ------------------ --------------------- ------------------ 
40     conv2d_40 (Conv2D, CONV_2D)                   [b:1,h:20,w:20,c:160]   6,560/7,040         2,560,160     eltwise_38   |                                          Conv2D_[21]        
       nl_40_nl (Nonlinearity, CONV_2D)              [b:1,h:20,w:20,c:160]                          64,000      conv2d_40   |                    -64,000(-100.0%)      
------ --------------------------------------------- ----------------------- ----------------- ----------- -------------- --- ------------------ --------------------- ------------------ 
41     pad_41 (Pad, PAD)                             [b:1,h:26,w:26,c:160]                                       nl_40_nl   | +8,480(+100.0%)    +3,136,160(+100.0%)   Conv2D_[22]        
------ --------------------------------------------- ----------------------- ----------------- ----------- -------------- --- ------------------ --------------------- ------------------ 
42     conv2d_42 (Conv2D, DEPTHWISE_CONV_2D)         [b:1,h:20,w:20,c:160]   8,000/8,480         3,136,160         pad_41   | -8,480(-100.0%)    -3,136,160(-100.0%)   
       nl_42_nl (Nonlinearity, DEPTHWISE_CONV_2D)    [b:1,h:20,w:20,c:160]                          64,000      conv2d_42   |                    -64,000(-100.0%)      
------ --------------------------------------------- ----------------------- ----------------- ----------- -------------- --- ------------------ --------------------- ------------------ 
44     conv2d_44 (Conv2D, CONV_2D)                   [b:1,h:20,w:20,c:40]    6,440/6,560         2,560,040       nl_42_nl   |                                          Conv2D_[23]        
------ --------------------------------------------- ----------------------- ----------------- ----------- -------------- --- ------------------ --------------------- ------------------ 
45     eltwise_45 (Eltwise, ADD)                     [b:1,h:20,w:20,c:40]                           16,000      conv2d_44   |                                          Eltwise/add_[24]   
                                                                                                               eltwise_38   | 
------ --------------------------------------------- ----------------------- ----------------- ----------- -------------- --- ------------------ --------------------- ------------------ 
47     conv2d_47 (Conv2D, CONV_2D)                   [b:1,h:20,w:20,c:120]   4,920/5,280         1,920,120     eltwise_45   |                                          Conv2D_[25]        
       nl_47_nl (Nonlinearity, CONV_2D)              [b:1,h:20,w:20,c:120]                          48,000      conv2d_47   |                    -48,000(-100.0%)      
------ --------------------------------------------- ----------------------- ----------------- ----------- -------------- --- ------------------ --------------------- ------------------ 
48     pad_48 (Pad, PAD)                             [b:1,h:26,w:26,c:120]                                       nl_47_nl   | +6,360(+100.0%)    +588,120(+100.0%)     Conv2D_[26]        
------ --------------------------------------------- ----------------------- ----------------- ----------- -------------- --- ------------------ --------------------- ------------------ 
49     conv2d_49 (Conv2D, DEPTHWISE_CONV_2D)         [b:1,h:10,w:10,c:120]   6,000/6,360           588,120         pad_48   | -6,360(-100.0%)    -588,120(-100.0%)     
       nl_49_nl (Nonlinearity, DEPTHWISE_CONV_2D)    [b:1,h:10,w:10,c:120]                          12,000      conv2d_49   |                    -12,000(-100.0%)      
------ --------------------------------------------- ----------------------- ----------------- ----------- -------------- --- ------------------ --------------------- ------------------ 
51     conv2d_51 (Conv2D, CONV_2D)                   [b:1,h:10,w:10,c:80]    9,680/9,920           960,080       nl_49_nl   |                                          Conv2D_[27]        
------ --------------------------------------------- ----------------------- ----------------- ----------- -------------- --- ------------------ --------------------- ------------------ 
53     conv2d_53 (Conv2D, CONV_2D)                   [b:1,h:10,w:10,c:240]   19,440/20,160       1,920,240      conv2d_51   |                                          Conv2D_[28]        
       nl_53_nl (Nonlinearity, CONV_2D)              [b:1,h:10,w:10,c:240]                          24,000      conv2d_53   |                    -24,000(-100.0%)      
------ --------------------------------------------- ----------------------- ----------------- ----------- -------------- --- ------------------ --------------------- ------------------ 
54     pad_54 (Pad, PAD)                             [b:1,h:12,w:12,c:240]                                       nl_53_nl   | +3,120(+100.0%)    +216,240(+100.0%)     Conv2D_[29]        
------ --------------------------------------------- ----------------------- ----------------- ----------- -------------- --- ------------------ --------------------- ------------------ 
55     conv2d_55 (Conv2D, DEPTHWISE_CONV_2D)         [b:1,h:10,w:10,c:240]   2,400/3,120           216,240         pad_54   | -3,120(-100.0%)    -216,240(-100.0%)     
       nl_55_nl (Nonlinearity, DEPTHWISE_CONV_2D)    [b:1,h:10,w:10,c:240]                          24,000      conv2d_55   |                    -24,000(-100.0%)      
------ --------------------------------------------- ----------------------- ----------------- ----------- -------------- --- ------------------ --------------------- ------------------ 
57     conv2d_57 (Conv2D, CONV_2D)                   [b:1,h:10,w:10,c:80]    19,280/19,520       1,920,080       nl_55_nl   |                                          Conv2D_[30]        
------ --------------------------------------------- ----------------------- ----------------- ----------- -------------- --- ------------------ --------------------- ------------------ 
58     eltwise_58 (Eltwise, ADD)                     [b:1,h:10,w:10,c:80]                            8,000      conv2d_57   |                                          Eltwise/add_[31]   
                                                                                                                conv2d_51   | 
------ --------------------------------------------- ----------------------- ----------------- ----------- -------------- --- ------------------ --------------------- ------------------ 
60     conv2d_60 (Conv2D, CONV_2D)                   [b:1,h:10,w:10,c:240]   19,440/20,160       1,920,240     eltwise_58   |                                          Conv2D_[32]        
       nl_60_nl (Nonlinearity, CONV_2D)              [b:1,h:10,w:10,c:240]                          24,000      conv2d_60   |                    -24,000(-100.0%)      
------ --------------------------------------------- ----------------------- ----------------- ----------- -------------- --- ------------------ --------------------- ------------------ 
61     pad_61 (Pad, PAD)                             [b:1,h:16,w:16,c:240]                                       nl_60_nl   | +12,720(+100.0%)   +1,176,240(+100.0%)   Conv2D_[33]        
------ --------------------------------------------- ----------------------- ----------------- ----------- -------------- --- ------------------ --------------------- ------------------ 
62     conv2d_62 (Conv2D, DEPTHWISE_CONV_2D)         [b:1,h:10,w:10,c:240]   12,000/12,720       1,176,240         pad_61   | -12,720(-100.0%)   -1,176,240(-100.0%)   
       nl_62_nl (Nonlinearity, DEPTHWISE_CONV_2D)    [b:1,h:10,w:10,c:240]                          24,000      conv2d_62   |                    -24,000(-100.0%)      
------ --------------------------------------------- ----------------------- ----------------- ----------- -------------- --- ------------------ --------------------- ------------------ 
64     conv2d_64 (Conv2D, CONV_2D)                   [b:1,h:10,w:10,c:80]    19,280/19,520       1,920,080       nl_62_nl   |                                          Conv2D_[34]        
------ --------------------------------------------- ----------------------- ----------------- ----------- -------------- --- ------------------ --------------------- ------------------ 
65     eltwise_65 (Eltwise, ADD)                     [b:1,h:10,w:10,c:80]                            8,000      conv2d_64   |                                          Eltwise/add_[35]   
                                                                                                               eltwise_58   | 
------ --------------------------------------------- ----------------------- ----------------- ----------- -------------- --- ------------------ --------------------- ------------------ 
67     conv2d_67 (Conv2D, CONV_2D)                   [b:1,h:10,w:10,c:320]   25,920/26,880       2,560,320     eltwise_65   |                                          Conv2D_[36]        
       nl_67_nl (Nonlinearity, CONV_2D)              [b:1,h:10,w:10,c:320]                          32,000      conv2d_67   |                    -32,000(-100.0%)      
------ --------------------------------------------- ----------------------- ----------------- ----------- -------------- --- ------------------ --------------------- ------------------ 
68     pad_68 (Pad, PAD)                             [b:1,h:12,w:12,c:320]                                       nl_67_nl   | +4,160(+100.0%)    +288,320(+100.0%)     Conv2D_[37]        
------ --------------------------------------------- ----------------------- ----------------- ----------- -------------- --- ------------------ --------------------- ------------------ 
69     conv2d_69 (Conv2D, DEPTHWISE_CONV_2D)         [b:1,h:10,w:10,c:320]   3,200/4,160           288,320         pad_68   | -4,160(-100.0%)    -288,320(-100.0%)     
       nl_69_nl (Nonlinearity, DEPTHWISE_CONV_2D)    [b:1,h:10,w:10,c:320]                          32,000      conv2d_69   |                    -32,000(-100.0%)      
------ --------------------------------------------- ----------------------- ----------------- ----------- -------------- --- ------------------ --------------------- ------------------ 
71     conv2d_71 (Conv2D, CONV_2D)                   [b:1,h:10,w:10,c:96]    30,816/31,104       3,072,096       nl_69_nl   |                                          Conv2D_[38]        
------ --------------------------------------------- ----------------------- ----------------- ----------- -------------- --- ------------------ --------------------- ------------------ 
73     conv2d_73 (Conv2D, CONV_2D)                   [b:1,h:10,w:10,c:288]   27,936/28,800       2,765,088      conv2d_71   |                                          Conv2D_[39]        
       nl_73_nl (Nonlinearity, CONV_2D)              [b:1,h:10,w:10,c:288]                          28,800      conv2d_73   |                    -28,800(-100.0%)      
------ --------------------------------------------- ----------------------- ----------------- ----------- -------------- --- ------------------ --------------------- ------------------ 
74     pad_74 (Pad, PAD)                             [b:1,h:14,w:14,c:288]                                       nl_73_nl   | +8,352(+100.0%)    +720,288(+100.0%)     Conv2D_[40]        
------ --------------------------------------------- ----------------------- ----------------- ----------- -------------- --- ------------------ --------------------- ------------------ 
75     conv2d_75 (Conv2D, DEPTHWISE_CONV_2D)         [b:1,h:10,w:10,c:288]   7,488/8,352           720,288         pad_74   | -8,352(-100.0%)    -720,288(-100.0%)     
       nl_75_nl (Nonlinearity, DEPTHWISE_CONV_2D)    [b:1,h:10,w:10,c:288]                          28,800      conv2d_75   |                    -28,800(-100.0%)      
------ --------------------------------------------- ----------------------- ----------------- ----------- -------------- --- ------------------ --------------------- ------------------ 
77     conv2d_77 (Conv2D, CONV_2D)                   [b:1,h:10,w:10,c:96]    27,744/28,032       2,764,896       nl_75_nl   |                                          Conv2D_[41]        
------ --------------------------------------------- ----------------------- ----------------- ----------- -------------- --- ------------------ --------------------- ------------------ 
78     eltwise_78 (Eltwise, ADD)                     [b:1,h:10,w:10,c:96]                            9,600      conv2d_77   |                                          Eltwise/add_[42]   
                                                                                                                conv2d_71   | 
------ --------------------------------------------- ----------------------- ----------------- ----------- -------------- --- ------------------ --------------------- ------------------ 
80     conv2d_80 (Conv2D, CONV_2D)                   [b:1,h:10,w:10,c:288]   27,936/28,800       2,765,088     eltwise_78   |                                          Conv2D_[43]        
       nl_80_nl (Nonlinearity, CONV_2D)              [b:1,h:10,w:10,c:288]                          28,800      conv2d_80   |                    -28,800(-100.0%)      
------ --------------------------------------------- ----------------------- ----------------- ----------- -------------- --- ------------------ --------------------- ------------------ 
81     pad_81 (Pad, PAD)                             [b:1,h:14,w:14,c:288]                                       nl_80_nl   | +8,352(+100.0%)    +720,288(+100.0%)     Conv2D_[44]        
------ --------------------------------------------- ----------------------- ----------------- ----------- -------------- --- ------------------ --------------------- ------------------ 
82     conv2d_82 (Conv2D, DEPTHWISE_CONV_2D)         [b:1,h:10,w:10,c:288]   7,488/8,352           720,288         pad_81   | -8,352(-100.0%)    -720,288(-100.0%)     
       nl_82_nl (Nonlinearity, DEPTHWISE_CONV_2D)    [b:1,h:10,w:10,c:288]                          28,800      conv2d_82   |                    -28,800(-100.0%)      
------ --------------------------------------------- ----------------------- ----------------- ----------- -------------- --- ------------------ --------------------- ------------------ 
84     conv2d_84 (Conv2D, CONV_2D)                   [b:1,h:10,w:10,c:96]    27,744/28,032       2,764,896       nl_82_nl   |                                          Conv2D_[45]        
------ --------------------------------------------- ----------------------- ----------------- ----------- -------------- --- ------------------ --------------------- ------------------ 
85     eltwise_85 (Eltwise, ADD)                     [b:1,h:10,w:10,c:96]                            9,600      conv2d_84   |                                          Eltwise/add_[46]   
                                                                                                               eltwise_78   | 
------ --------------------------------------------- ----------------------- ----------------- ----------- -------------- --- ------------------ --------------------- ------------------ 
87     conv2d_87 (Conv2D, CONV_2D)                   [b:1,h:10,w:10,c:384]   37,248/38,400       3,686,784     eltwise_85   |                                          Conv2D_[47]        
       nl_87_nl (Nonlinearity, CONV_2D)              [b:1,h:10,w:10,c:384]                          38,400      conv2d_87   |                    -38,400(-100.0%)      
------ --------------------------------------------- ----------------------- ----------------- ----------- -------------- --- ------------------ --------------------- ------------------ 
88     pad_88 (Pad, PAD)                             [b:1,h:16,w:16,c:384]                                       nl_87_nl   | +20,352(+100.0%)   +470,784(+100.0%)     Conv2D_[48]        
------ --------------------------------------------- ----------------------- ----------------- ----------- -------------- --- ------------------ --------------------- ------------------ 
89     conv2d_89 (Conv2D, DEPTHWISE_CONV_2D)         [b:1,h:5,w:5,c:384]     19,200/20,352         470,784         pad_88   | -20,352(-100.0%)   -470,784(-100.0%)     
       nl_89_nl (Nonlinearity, DEPTHWISE_CONV_2D)    [b:1,h:5,w:5,c:384]                             9,600      conv2d_89   |                    -9,600(-100.0%)       
------ --------------------------------------------- ----------------------- ----------------- ----------- -------------- --- ------------------ --------------------- ------------------ 
91     conv2d_91 (Conv2D, CONV_2D)                   [b:1,h:5,w:5,c:192]     73,920/74,496       1,843,392       nl_89_nl   |                                          Conv2D_[49]        
------ --------------------------------------------- ----------------------- ----------------- ----------- -------------- --- ------------------ --------------------- ------------------ 
93     conv2d_93 (Conv2D, CONV_2D)                   [b:1,h:5,w:5,c:576]     111,168/112,896     2,765,376      conv2d_91   |                                          Conv2D_[50]        
       nl_93_nl (Nonlinearity, CONV_2D)              [b:1,h:5,w:5,c:576]                            14,400      conv2d_93   |                    -14,400(-100.0%)      
------ --------------------------------------------- ----------------------- ----------------- ----------- -------------- --- ------------------ --------------------- ------------------ 
94     pad_94 (Pad, PAD)                             [b:1,h:11,w:11,c:576]                                       nl_93_nl   | +30,528(+100.0%)   +706,176(+100.0%)     Conv2D_[51]        
------ --------------------------------------------- ----------------------- ----------------- ----------- -------------- --- ------------------ --------------------- ------------------ 
95     conv2d_95 (Conv2D, DEPTHWISE_CONV_2D)         [b:1,h:5,w:5,c:576]     28,800/30,528         706,176         pad_94   | -30,528(-100.0%)   -706,176(-100.0%)     
       nl_95_nl (Nonlinearity, DEPTHWISE_CONV_2D)    [b:1,h:5,w:5,c:576]                            14,400      conv2d_95   |                    -14,400(-100.0%)      
------ --------------------------------------------- ----------------------- ----------------- ----------- -------------- --- ------------------ --------------------- ------------------ 
97     conv2d_97 (Conv2D, CONV_2D)                   [b:1,h:5,w:5,c:192]     110,784/111,360     2,764,992       nl_95_nl   |                                          Conv2D_[52]        
------ --------------------------------------------- ----------------------- ----------------- ----------- -------------- --- ------------------ --------------------- ------------------ 
98     eltwise_98 (Eltwise, ADD)                     [b:1,h:5,w:5,c:192]                             4,800      conv2d_97   |                                          Eltwise/add_[53]   
                                                                                                                conv2d_91   | 
------ --------------------------------------------- ----------------------- ----------------- ----------- -------------- --- ------------------ --------------------- ------------------ 
100    conv2d_100 (Conv2D, CONV_2D)                  [b:1,h:5,w:5,c:576]     111,168/112,896     2,765,376     eltwise_98   |                                          Conv2D_[54]        
       nl_100_nl (Nonlinearity, CONV_2D)             [b:1,h:5,w:5,c:576]                            14,400     conv2d_100   |                    -14,400(-100.0%)      
------ --------------------------------------------- ----------------------- ----------------- ----------- -------------- --- ------------------ --------------------- ------------------ 
101    pad_101 (Pad, PAD)                            [b:1,h:9,w:9,c:576]                                        nl_100_nl   | +16,704(+100.0%)   +360,576(+100.0%)     Conv2D_[55]        
------ --------------------------------------------- ----------------------- ----------------- ----------- -------------- --- ------------------ --------------------- ------------------ 
102    conv2d_102 (Conv2D, DEPTHWISE_CONV_2D)        [b:1,h:5,w:5,c:576]     14,976/16,704         360,576        pad_101   | -16,704(-100.0%)   -360,576(-100.0%)     
       nl_102_nl (Nonlinearity, DEPTHWISE_CONV_2D)   [b:1,h:5,w:5,c:576]                            14,400     conv2d_102   |                    -14,400(-100.0%)      
------ --------------------------------------------- ----------------------- ----------------- ----------- -------------- --- ------------------ --------------------- ------------------ 
104    conv2d_104 (Conv2D, CONV_2D)                  [b:1,h:5,w:5,c:192]     110,784/111,360     2,764,992      nl_102_nl   |                                          Conv2D_[56]        
------ --------------------------------------------- ----------------------- ----------------- ----------- -------------- --- ------------------ --------------------- ------------------ 
105    eltwise_105 (Eltwise, ADD)                    [b:1,h:5,w:5,c:192]                             4,800     conv2d_104   |                                          Eltwise/add_[57]   
                                                                                                               eltwise_98   | 
------ --------------------------------------------- ----------------------- ----------------- ----------- -------------- --- ------------------ --------------------- ------------------ 
107    conv2d_107 (Conv2D, CONV_2D)                  [b:1,h:5,w:5,c:768]     148,224/150,528     3,687,168    eltwise_105   |                                          Conv2D_[58]        
       nl_107_nl (Nonlinearity, CONV_2D)             [b:1,h:5,w:5,c:768]                            19,200     conv2d_107   |                    -19,200(-100.0%)      
------ --------------------------------------------- ----------------------- ----------------- ----------- -------------- --- ------------------ --------------------- ------------------ 
108    pad_108 (Pad, PAD)                            [b:1,h:9,w:9,c:768]                                        nl_107_nl   | +22,272(+100.0%)   +480,768(+100.0%)     Conv2D_[59]        
------ --------------------------------------------- ----------------------- ----------------- ----------- -------------- --- ------------------ --------------------- ------------------ 
109    conv2d_109 (Conv2D, DEPTHWISE_CONV_2D)        [b:1,h:5,w:5,c:768]     19,968/22,272         480,768        pad_108   | -22,272(-100.0%)   -480,768(-100.0%)     
       nl_109_nl (Nonlinearity, DEPTHWISE_CONV_2D)   [b:1,h:5,w:5,c:768]                            19,200     conv2d_109   |                    -19,200(-100.0%)      
------ --------------------------------------------- ----------------------- ----------------- ----------- -------------- --- ------------------ --------------------- ------------------ 
111    conv2d_111 (Conv2D, CONV_2D)                  [b:1,h:5,w:5,c:320]     246,080/247,040     6,144,320      nl_109_nl   |                                          Conv2D_[60]        
------ --------------------------------------------- ----------------------- ----------------- ----------- -------------- --- ------------------ --------------------- ------------------ 
112    pool_112 (Pool, AVERAGE_POOL_2D)              [b:1,h:1,w:1,c:320]                             8,000     conv2d_111   |                                          Pool_[61]          
------ --------------------------------------------- ----------------------- ----------------- ----------- -------------- --- ------------------ --------------------- ------------------ 
113    conv2d_113 (Conv2D, CONV_2D)                  [b:1,h:1,w:1,c:1000]    321,000/324,000       321,000       pool_112   |                                          Conv2D_[o][62]     
------ --------------------------------------------- ----------------------- ----------------- ----------- -------------- --- ------------------ --------------------- ------------------ 
114    reshape_114 (Reshape, RESHAPE)                [b:1,c:1000]                                              conv2d_113   |                                          
------ --------------------------------------------- ----------------------- ----------------- ----------- -------------- --- ------------------ --------------------- ------------------ 
model/c-model: macc=128,507,704/126,047,704 -2,460,000(-1.9%) weights=1,757,048/1,757,048  activations=--/318,676 io=--/0



Generated C-graph summary
------------------------------------------------------------------------------------------------------------------------
model name            : mcunet512kb2mb_imagenet
c-name                : network
c-node #              : 63
c-array #             : 220
activations size      : 318676 (1 segment)
weights size          : 1757048 (1 segment)
macc                  : 126047704
inputs                : ['input_output']
outputs               : ['conv2d_113_output']

C-Arrays (220)
------ --------------------- --------------- ------------------------- ----------- --------- 
c_id   name (*_array)        item/size       domain/mem-pool           c-type      comment   
------ --------------------- --------------- ------------------------- ----------- --------- 
0      conv2d_100_bias       576/2304        weights/weights           const s32             
1      conv2d_100_output     14400/14400     activations/**default**   s8                    
2      conv2d_100_scratch0   6528/6528       activations/**default**   s8                    
3      conv2d_100_weights    110592/110592   weights/weights           const s8              
4      conv2d_102_bias       576/2304        weights/weights           const s32             
5      conv2d_102_output     14400/14400     activations/**default**   s8                    
6      conv2d_102_scratch0   48961/48961     activations/**default**   s8                    
7      conv2d_102_weights    14400/14400     weights/weights           const s8              
8      conv2d_104_bias       192/768         weights/weights           const s32             
9      conv2d_104_output     4800/4800       activations/**default**   s8                    
10     conv2d_104_scratch0   4224/4224       activations/**default**   s8                    
11     conv2d_104_weights    110592/110592   weights/weights           const s8              
12     conv2d_107_bias       768/3072        weights/weights           const s32             
13     conv2d_107_output     19200/19200     activations/**default**   s8                    
14     conv2d_107_scratch0   8448/8448       activations/**default**   s8                    
15     conv2d_107_weights    147456/147456   weights/weights           const s8              
16     conv2d_109_bias       768/3072        weights/weights           const s32             
17     conv2d_109_output     19200/19200     activations/**default**   s8                    
18     conv2d_109_scratch0   65281/65281     activations/**default**   s8                    
19     conv2d_109_weights    19200/19200     weights/weights           const s8              
20     conv2d_111_bias       320/1280        weights/weights           const s32             
21     conv2d_111_output     8000/8000       activations/**default**   s8                    
22     conv2d_111_scratch0   6272/6272       activations/**default**   s8                    
23     conv2d_111_weights    245760/245760   weights/weights           const s8              
24     conv2d_113_bias       1000/4000       weights/weights           const s32             
25     conv2d_113_output     1000/1000       activations/**default**   s8          /output   
26     conv2d_113_scratch0   11280/11280     activations/**default**   s8                    
27     conv2d_113_weights    320000/320000   weights/weights           const s8              
28     conv2d_11_bias        24/96           weights/weights           const s32             
29     conv2d_11_output      38400/38400     activations/**default**   s8                    
30     conv2d_11_scratch0    432/432         activations/**default**   s8                    
31     conv2d_11_weights     1152/1152       weights/weights           const s8              
32     conv2d_13_bias        120/480         weights/weights           const s32             
33     conv2d_13_output      192000/192000   activations/**default**   s8                    
34     conv2d_13_scratch0    1296/1296       activations/**default**   s8                    
35     conv2d_13_weights     2880/2880       weights/weights           const s8              
36     conv2d_15_bias        120/480         weights/weights           const s32             
37     conv2d_15_output      192000/192000   activations/**default**   s8                    
38     conv2d_15_scratch0    4441/4441       activations/**default**   s8                    
39     conv2d_15_weights     1080/1080       weights/weights           const s8              
40     conv2d_17_bias        24/96           weights/weights           const s32             
41     conv2d_17_output      38400/38400     activations/**default**   s8                    
42     conv2d_17_scratch0    720/720         activations/**default**   s8                    
43     conv2d_17_weights     2880/2880       weights/weights           const s8              
44     conv2d_1_bias         32/128          weights/weights           const s32             
45     conv2d_1_output       204800/204800   activations/**default**   s8                    
46     conv2d_1_scratch0     2284/2284       activations/**default**   s8                    
47     conv2d_1_weights      864/864         weights/weights           const s8              
48     conv2d_20_bias        96/384          weights/weights           const s32             
49     conv2d_20_output      153600/153600   activations/**default**   s8                    
50     conv2d_20_scratch0    1056/1056       activations/**default**   s8                    
51     conv2d_20_weights     2304/2304       weights/weights           const s8              
52     conv2d_22_bias        96/384          weights/weights           const s32             
53     conv2d_22_output      153600/153600   activations/**default**   s8                    
54     conv2d_22_scratch0    8161/8161       activations/**default**   s8                    
55     conv2d_22_weights     2400/2400       weights/weights           const s8              
56     conv2d_24_bias        24/96           weights/weights           const s32             
57     conv2d_24_output      38400/38400     activations/**default**   s8                    
58     conv2d_24_scratch0    624/624         activations/**default**   s8                    
59     conv2d_24_weights     2304/2304       weights/weights           const s8              
60     conv2d_27_bias        120/480         weights/weights           const s32             
61     conv2d_27_output      192000/192000   activations/**default**   s8                    
62     conv2d_27_scratch0    1296/1296       activations/**default**   s8                    
63     conv2d_27_weights     2880/2880       weights/weights           const s8              
64     conv2d_29_bias        120/480         weights/weights           const s32             
65     conv2d_29_output      48000/48000     activations/**default**   s8                    
66     conv2d_29_scratch0    18841/18841     activations/**default**   s8                    
67     conv2d_29_weights     5880/5880       weights/weights           const s8              
68     conv2d_31_bias        40/160          weights/weights           const s32             
69     conv2d_31_output      16000/16000     activations/**default**   s8                    
70     conv2d_31_scratch0    880/880         activations/**default**   s8                    
71     conv2d_31_weights     4800/4800       weights/weights           const s8              
72     conv2d_33_bias        160/640         weights/weights           const s32             
73     conv2d_33_output      64000/64000     activations/**default**   s8                    
74     conv2d_33_scratch0    1760/1760       activations/**default**   s8                    
75     conv2d_33_weights     6400/6400       weights/weights           const s8              
76     conv2d_35_bias        160/640         weights/weights           const s32             
77     conv2d_35_output      64000/64000     activations/**default**   s8                    
78     conv2d_35_scratch0    5921/5921       activations/**default**   s8                    
79     conv2d_35_weights     1440/1440       weights/weights           const s8              
80     conv2d_37_bias        40/160          weights/weights           const s32             
81     conv2d_37_output      16000/16000     activations/**default**   s8                    
82     conv2d_37_scratch0    1040/1040       activations/**default**   s8                    
83     conv2d_37_weights     6400/6400       weights/weights           const s8              
84     conv2d_3_bias         32/128          weights/weights           const s32             
85     conv2d_3_output       204800/204800   activations/**default**   s8                    
86     conv2d_3_scratch0     1185/1185       activations/**default**   s8                    
87     conv2d_3_weights      288/288         weights/weights           const s8              
88     conv2d_40_bias        160/640         weights/weights           const s32             
89     conv2d_40_output      64000/64000     activations/**default**   s8                    
90     conv2d_40_scratch0    1760/1760       activations/**default**   s8                    
91     conv2d_40_weights     6400/6400       weights/weights           const s8              
92     conv2d_42_bias        160/640         weights/weights           const s32             
93     conv2d_42_output      64000/64000     activations/**default**   s8                    
94     conv2d_42_scratch0    25121/25121     activations/**default**   s8                    
95     conv2d_42_weights     7840/7840       weights/weights           const s8              
96     conv2d_44_bias        40/160          weights/weights           const s32             
97     conv2d_44_output      16000/16000     activations/**default**   s8                    
98     conv2d_44_scratch0    1040/1040       activations/**default**   s8                    
99     conv2d_44_weights     6400/6400       weights/weights           const s8              
100    conv2d_47_bias        120/480         weights/weights           const s32             
101    conv2d_47_output      48000/48000     activations/**default**   s8                    
102    conv2d_47_scratch0    1360/1360       activations/**default**   s8                    
103    conv2d_47_weights     4800/4800       weights/weights           const s8              
104    conv2d_49_bias        120/480         weights/weights           const s32             
105    conv2d_49_output      12000/12000     activations/**default**   s8                    
106    conv2d_49_scratch0    18841/18841     activations/**default**   s8                    
107    conv2d_49_weights     5880/5880       weights/weights           const s8              
108    conv2d_51_bias        80/320          weights/weights           const s32             
109    conv2d_51_output      8000/8000       activations/**default**   s8                    
110    conv2d_51_scratch0    1280/1280       activations/**default**   s8                    
111    conv2d_51_weights     9600/9600       weights/weights           const s8              
112    conv2d_53_bias        240/960         weights/weights           const s32             
113    conv2d_53_output      24000/24000     activations/**default**   s8                    
114    conv2d_53_scratch0    2720/2720       activations/**default**   s8                    
115    conv2d_53_weights     19200/19200     weights/weights           const s8              
116    conv2d_55_bias        240/960         weights/weights           const s32             
117    conv2d_55_output      24000/24000     activations/**default**   s8                    
118    conv2d_55_scratch0    8881/8881       activations/**default**   s8                    
119    conv2d_55_weights     2160/2160       weights/weights           const s8              
120    conv2d_57_bias        80/320          weights/weights           const s32             
121    conv2d_57_output      8000/8000       activations/**default**   s8                    
122    conv2d_57_scratch0    1760/1760       activations/**default**   s8                    
123    conv2d_57_weights     19200/19200     weights/weights           const s8              
124    conv2d_5_bias         16/64           weights/weights           const s32             
125    conv2d_5_output       102400/102400   activations/**default**   s8                    
126    conv2d_5_scratch0     288/288         activations/**default**   s8                    
127    conv2d_5_weights      512/512         weights/weights           const s8              
128    conv2d_60_bias        240/960         weights/weights           const s32             
129    conv2d_60_output      24000/24000     activations/**default**   s8                    
130    conv2d_60_scratch0    2720/2720       activations/**default**   s8                    
131    conv2d_60_weights     19200/19200     weights/weights           const s8              
132    conv2d_62_bias        240/960         weights/weights           const s32             
133    conv2d_62_output      24000/24000     activations/**default**   s8                    
134    conv2d_62_scratch0    37681/37681     activations/**default**   s8                    
135    conv2d_62_weights     11760/11760     weights/weights           const s8              
136    conv2d_64_bias        80/320          weights/weights           const s32             
137    conv2d_64_output      8000/8000       activations/**default**   s8                    
138    conv2d_64_scratch0    1760/1760       activations/**default**   s8                    
139    conv2d_64_weights     19200/19200     weights/weights           const s8              
140    conv2d_67_bias        320/1280        weights/weights           const s32             
141    conv2d_67_output      32000/32000     activations/**default**   s8                    
142    conv2d_67_scratch0    3520/3520       activations/**default**   s8                    
143    conv2d_67_weights     25600/25600     weights/weights           const s8              
144    conv2d_69_bias        320/1280        weights/weights           const s32             
145    conv2d_69_output      32000/32000     activations/**default**   s8                    
146    conv2d_69_scratch0    11841/11841     activations/**default**   s8                    
147    conv2d_69_weights     2880/2880       weights/weights           const s8              
148    conv2d_71_bias        96/384          weights/weights           const s32             
149    conv2d_71_output      9600/9600       activations/**default**   s8                    
150    conv2d_71_scratch0    2240/2240       activations/**default**   s8                    
151    conv2d_71_weights     30720/30720     weights/weights           const s8              
152    conv2d_73_bias        288/1152        weights/weights           const s32             
153    conv2d_73_output      28800/28800     activations/**default**   s8                    
154    conv2d_73_scratch0    3264/3264       activations/**default**   s8                    
155    conv2d_73_weights     27648/27648     weights/weights           const s8              
156    conv2d_75_bias        288/1152        weights/weights           const s32             
157    conv2d_75_output      28800/28800     activations/**default**   s8                    
158    conv2d_75_scratch0    24481/24481     activations/**default**   s8                    
159    conv2d_75_weights     7200/7200       weights/weights           const s8              
160    conv2d_77_bias        96/384          weights/weights           const s32             
161    conv2d_77_output      9600/9600       activations/**default**   s8                    
162    conv2d_77_scratch0    2112/2112       activations/**default**   s8                    
163    conv2d_77_weights     27648/27648     weights/weights           const s8              
164    conv2d_7_bias         48/192          weights/weights           const s32             
165    conv2d_7_output       307200/307200   activations/**default**   s8                    
166    conv2d_7_scratch0     544/544         activations/**default**   s8                    
167    conv2d_7_weights      768/768         weights/weights           const s8              
168    conv2d_80_bias        288/1152        weights/weights           const s32             
169    conv2d_80_output      28800/28800     activations/**default**   s8                    
170    conv2d_80_scratch0    3264/3264       activations/**default**   s8                    
171    conv2d_80_weights     27648/27648     weights/weights           const s8              
172    conv2d_82_bias        288/1152        weights/weights           const s32             
173    conv2d_82_output      28800/28800     activations/**default**   s8                    
174    conv2d_82_scratch0    24481/24481     activations/**default**   s8                    
175    conv2d_82_weights     7200/7200       weights/weights           const s8              
176    conv2d_84_bias        96/384          weights/weights           const s32             
177    conv2d_84_output      9600/9600       activations/**default**   s8                    
178    conv2d_84_scratch0    2112/2112       activations/**default**   s8                    
179    conv2d_84_weights     27648/27648     weights/weights           const s8              
180    conv2d_87_bias        384/1536        weights/weights           const s32             
181    conv2d_87_output      38400/38400     activations/**default**   s8                    
182    conv2d_87_scratch0    4224/4224       activations/**default**   s8                    
183    conv2d_87_weights     36864/36864     weights/weights           const s8              
184    conv2d_89_bias        384/1536        weights/weights           const s32             
185    conv2d_89_output      9600/9600       activations/**default**   s8                    
186    conv2d_89_scratch0    60289/60289     activations/**default**   s8                    
187    conv2d_89_weights     18816/18816     weights/weights           const s8              
188    conv2d_91_bias        192/768         weights/weights           const s32             
189    conv2d_91_output      4800/4800       activations/**default**   s8                    
190    conv2d_91_scratch0    3456/3456       activations/**default**   s8                    
191    conv2d_91_weights     73728/73728     weights/weights           const s8              
192    conv2d_93_bias        576/2304        weights/weights           const s32             
193    conv2d_93_output      14400/14400     activations/**default**   s8                    
194    conv2d_93_scratch0    6528/6528       activations/**default**   s8                    
195    conv2d_93_weights     110592/110592   weights/weights           const s8              
196    conv2d_95_bias        576/2304        weights/weights           const s32             
197    conv2d_95_output      14400/14400     activations/**default**   s8                    
198    conv2d_95_scratch0    90433/90433     activations/**default**   s8                    
199    conv2d_95_weights     28224/28224     weights/weights           const s8              
200    conv2d_97_bias        192/768         weights/weights           const s32             
201    conv2d_97_output      4800/4800       activations/**default**   s8                    
202    conv2d_97_scratch0    4224/4224       activations/**default**   s8                    
203    conv2d_97_weights     110592/110592   weights/weights           const s8              
204    conv2d_9_bias         48/192          weights/weights           const s32             
205    conv2d_9_output       76800/76800     activations/**default**   s8                    
206    conv2d_9_scratch0     7537/7537       activations/**default**   s8                    
207    conv2d_9_weights      2352/2352       weights/weights           const s8              
208    eltwise_105_output    4800/4800       activations/**default**   s8                    
209    eltwise_18_output     38400/38400     activations/**default**   s8                    
210    eltwise_25_output     38400/38400     activations/**default**   s8                    
211    eltwise_38_output     16000/16000     activations/**default**   s8                    
212    eltwise_45_output     16000/16000     activations/**default**   s8                    
213    eltwise_58_output     8000/8000       activations/**default**   s8                    
214    eltwise_65_output     8000/8000       activations/**default**   s8                    
215    eltwise_78_output     9600/9600       activations/**default**   s8                    
216    eltwise_85_output     9600/9600       activations/**default**   s8                    
217    eltwise_98_output     4800/4800       activations/**default**   s8                    
218    input_output          76800/76801     activations/**default**   s8          /input    
219    pool_112_output       320/320         activations/**default**   s8                    
------ --------------------- --------------- ------------------------- ----------- --------- 

C-Layers (63)
------ ---------------- ----- -------------- --------- -------- ------------------------ ------------------------- 
c_id   name (*_layer)   id    layer_type     macc      rom      tensors                  shape (array id)          
------ ---------------- ----- -------------- --------- -------- ------------------------ ------------------------- 
0      conv2d_1         0     Conv2D         5529632   992      I: input_output          int8(1x160x160x3) (218)   
                                                                S: conv2d_1_scratch0                               
                                                                W: conv2d_1_weights      int8(32x3x3x3) (47)       
                                                                W: conv2d_1_bias         int32(32) (44)            
                                                                O: conv2d_1_output       int8(1x80x80x32) (45)     
------ ---------------- ----- -------------- --------- -------- ------------------------ ------------------------- 
1      conv2d_3         2     Conv2D         1843232   416      I: conv2d_1_output       int8(1x80x80x32) (45)     
                                                                S: conv2d_3_scratch0                               
                                                                W: conv2d_3_weights      int8(1x3x3x32) (87)       
                                                                W: conv2d_3_bias         int32(32) (84)            
                                                                O: conv2d_3_output       int8(1x80x80x32) (85)     
------ ---------------- ----- -------------- --------- -------- ------------------------ ------------------------- 
2      conv2d_5         5     Conv2D         3276816   576      I: conv2d_3_output       int8(1x80x80x32) (85)     
                                                                S: conv2d_5_scratch0                               
                                                                W: conv2d_5_weights      int8(16x1x1x32) (127)     
                                                                W: conv2d_5_bias         int32(16) (124)           
                                                                O: conv2d_5_output       int8(1x80x80x16) (125)    
------ ---------------- ----- -------------- --------- -------- ------------------------ ------------------------- 
3      conv2d_7         7     Conv2D         4915248   960      I: conv2d_5_output       int8(1x80x80x16) (125)    
                                                                S: conv2d_7_scratch0                               
                                                                W: conv2d_7_weights      int8(48x1x1x16) (167)     
                                                                W: conv2d_7_bias         int32(48) (164)           
                                                                O: conv2d_7_output       int8(1x80x80x48) (165)    
------ ---------------- ----- -------------- --------- -------- ------------------------ ------------------------- 
4      conv2d_9         8     Conv2D         3763248   2544     I: conv2d_7_output       int8(1x80x80x48) (165)    
                                                                S: conv2d_9_scratch0                               
                                                                W: conv2d_9_weights      int8(1x7x7x48) (207)      
                                                                W: conv2d_9_bias         int32(48) (204)           
                                                                O: conv2d_9_output       int8(1x40x40x48) (205)    
------ ---------------- ----- -------------- --------- -------- ------------------------ ------------------------- 
5      conv2d_11        11    Conv2D         1843224   1248     I: conv2d_9_output       int8(1x40x40x48) (205)    
                                                                S: conv2d_11_scratch0                              
                                                                W: conv2d_11_weights     int8(24x1x1x48) (31)      
                                                                W: conv2d_11_bias        int32(24) (28)            
                                                                O: conv2d_11_output      int8(1x40x40x24) (29)     
------ ---------------- ----- -------------- --------- -------- ------------------------ ------------------------- 
6      conv2d_13        13    Conv2D         4608120   3360     I: conv2d_11_output      int8(1x40x40x24) (29)     
                                                                S: conv2d_13_scratch0                              
                                                                W: conv2d_13_weights     int8(120x1x1x24) (35)     
                                                                W: conv2d_13_bias        int32(120) (32)           
                                                                O: conv2d_13_output      int8(1x40x40x120) (33)    
------ ---------------- ----- -------------- --------- -------- ------------------------ ------------------------- 
7      conv2d_15        14    Conv2D         1728120   1560     I: conv2d_13_output      int8(1x40x40x120) (33)    
                                                                S: conv2d_15_scratch0                              
                                                                W: conv2d_15_weights     int8(1x3x3x120) (39)      
                                                                W: conv2d_15_bias        int32(120) (36)           
                                                                O: conv2d_15_output      int8(1x40x40x120) (37)    
------ ---------------- ----- -------------- --------- -------- ------------------------ ------------------------- 
8      conv2d_17        17    Conv2D         4608024   2976     I: conv2d_15_output      int8(1x40x40x120) (37)    
                                                                S: conv2d_17_scratch0                              
                                                                W: conv2d_17_weights     int8(24x1x1x120) (43)     
                                                                W: conv2d_17_bias        int32(24) (40)            
                                                                O: conv2d_17_output      int8(1x40x40x24) (41)     
------ ---------------- ----- -------------- --------- -------- ------------------------ ------------------------- 
9      eltwise_18       18    Eltwise/add    38400     0        I: conv2d_17_output      int8(1x40x40x24) (41)     
                                                                I: conv2d_11_output      int8(1x40x40x24) (41)     
                                                                O: eltwise_18_output     int8(1x40x40x24) (209)    
------ ---------------- ----- -------------- --------- -------- ------------------------ ------------------------- 
10     conv2d_20        20    Conv2D         3686496   2688     I: eltwise_18_output     int8(1x40x40x24) (209)    
                                                                S: conv2d_20_scratch0                              
                                                                W: conv2d_20_weights     int8(96x1x1x24) (51)      
                                                                W: conv2d_20_bias        int32(96) (48)            
                                                                O: conv2d_20_output      int8(1x40x40x96) (49)     
------ ---------------- ----- -------------- --------- -------- ------------------------ ------------------------- 
11     conv2d_22        21    Conv2D         3840096   2784     I: conv2d_20_output      int8(1x40x40x96) (49)     
                                                                S: conv2d_22_scratch0                              
                                                                W: conv2d_22_weights     int8(1x5x5x96) (55)       
                                                                W: conv2d_22_bias        int32(96) (52)            
                                                                O: conv2d_22_output      int8(1x40x40x96) (53)     
------ ---------------- ----- -------------- --------- -------- ------------------------ ------------------------- 
12     conv2d_24        24    Conv2D         3686424   2400     I: conv2d_22_output      int8(1x40x40x96) (53)     
                                                                S: conv2d_24_scratch0                              
                                                                W: conv2d_24_weights     int8(24x1x1x96) (59)      
                                                                W: conv2d_24_bias        int32(24) (56)            
                                                                O: conv2d_24_output      int8(1x40x40x24) (57)     
------ ---------------- ----- -------------- --------- -------- ------------------------ ------------------------- 
13     eltwise_25       25    Eltwise/add    38400     0        I: conv2d_24_output      int8(1x40x40x24) (57)     
                                                                I: eltwise_18_output     int8(1x40x40x24) (57)     
                                                                O: eltwise_25_output     int8(1x40x40x24) (210)    
------ ---------------- ----- -------------- --------- -------- ------------------------ ------------------------- 
14     conv2d_27        27    Conv2D         4608120   3360     I: eltwise_25_output     int8(1x40x40x24) (210)    
                                                                S: conv2d_27_scratch0                              
                                                                W: conv2d_27_weights     int8(120x1x1x24) (63)     
                                                                W: conv2d_27_bias        int32(120) (60)           
                                                                O: conv2d_27_output      int8(1x40x40x120) (61)    
------ ---------------- ----- -------------- --------- -------- ------------------------ ------------------------- 
15     conv2d_29        28    Conv2D         2352120   6360     I: conv2d_27_output      int8(1x40x40x120) (61)    
                                                                S: conv2d_29_scratch0                              
                                                                W: conv2d_29_weights     int8(1x7x7x120) (67)      
                                                                W: conv2d_29_bias        int32(120) (64)           
                                                                O: conv2d_29_output      int8(1x20x20x120) (65)    
------ ---------------- ----- -------------- --------- -------- ------------------------ ------------------------- 
16     conv2d_31        31    Conv2D         1920040   4960     I: conv2d_29_output      int8(1x20x20x120) (65)    
                                                                S: conv2d_31_scratch0                              
                                                                W: conv2d_31_weights     int8(40x1x1x120) (71)     
                                                                W: conv2d_31_bias        int32(40) (68)            
                                                                O: conv2d_31_output      int8(1x20x20x40) (69)     
------ ---------------- ----- -------------- --------- -------- ------------------------ ------------------------- 
17     conv2d_33        33    Conv2D         2560160   7040     I: conv2d_31_output      int8(1x20x20x40) (69)     
                                                                S: conv2d_33_scratch0                              
                                                                W: conv2d_33_weights     int8(160x1x1x40) (75)     
                                                                W: conv2d_33_bias        int32(160) (72)           
                                                                O: conv2d_33_output      int8(1x20x20x160) (73)    
------ ---------------- ----- -------------- --------- -------- ------------------------ ------------------------- 
18     conv2d_35        34    Conv2D         576160    2080     I: conv2d_33_output      int8(1x20x20x160) (73)    
                                                                S: conv2d_35_scratch0                              
                                                                W: conv2d_35_weights     int8(1x3x3x160) (79)      
                                                                W: conv2d_35_bias        int32(160) (76)           
                                                                O: conv2d_35_output      int8(1x20x20x160) (77)    
------ ---------------- ----- -------------- --------- -------- ------------------------ ------------------------- 
19     conv2d_37        37    Conv2D         2560040   6560     I: conv2d_35_output      int8(1x20x20x160) (77)    
                                                                S: conv2d_37_scratch0                              
                                                                W: conv2d_37_weights     int8(40x1x1x160) (83)     
                                                                W: conv2d_37_bias        int32(40) (80)            
                                                                O: conv2d_37_output      int8(1x20x20x40) (81)     
------ ---------------- ----- -------------- --------- -------- ------------------------ ------------------------- 
20     eltwise_38       38    Eltwise/add    16000     0        I: conv2d_37_output      int8(1x20x20x40) (81)     
                                                                I: conv2d_31_output      int8(1x20x20x40) (81)     
                                                                O: eltwise_38_output     int8(1x20x20x40) (211)    
------ ---------------- ----- -------------- --------- -------- ------------------------ ------------------------- 
21     conv2d_40        40    Conv2D         2560160   7040     I: eltwise_38_output     int8(1x20x20x40) (211)    
                                                                S: conv2d_40_scratch0                              
                                                                W: conv2d_40_weights     int8(160x1x1x40) (91)     
                                                                W: conv2d_40_bias        int32(160) (88)           
                                                                O: conv2d_40_output      int8(1x20x20x160) (89)    
------ ---------------- ----- -------------- --------- -------- ------------------------ ------------------------- 
22     conv2d_42        41    Conv2D         3136160   8480     I: conv2d_40_output      int8(1x20x20x160) (89)    
                                                                S: conv2d_42_scratch0                              
                                                                W: conv2d_42_weights     int8(1x7x7x160) (95)      
                                                                W: conv2d_42_bias        int32(160) (92)           
                                                                O: conv2d_42_output      int8(1x20x20x160) (93)    
------ ---------------- ----- -------------- --------- -------- ------------------------ ------------------------- 
23     conv2d_44        44    Conv2D         2560040   6560     I: conv2d_42_output      int8(1x20x20x160) (93)    
                                                                S: conv2d_44_scratch0                              
                                                                W: conv2d_44_weights     int8(40x1x1x160) (99)     
                                                                W: conv2d_44_bias        int32(40) (96)            
                                                                O: conv2d_44_output      int8(1x20x20x40) (97)     
------ ---------------- ----- -------------- --------- -------- ------------------------ ------------------------- 
24     eltwise_45       45    Eltwise/add    16000     0        I: conv2d_44_output      int8(1x20x20x40) (97)     
                                                                I: eltwise_38_output     int8(1x20x20x40) (97)     
                                                                O: eltwise_45_output     int8(1x20x20x40) (212)    
------ ---------------- ----- -------------- --------- -------- ------------------------ ------------------------- 
25     conv2d_47        47    Conv2D         1920120   5280     I: eltwise_45_output     int8(1x20x20x40) (212)    
                                                                S: conv2d_47_scratch0                              
                                                                W: conv2d_47_weights     int8(120x1x1x40) (103)    
                                                                W: conv2d_47_bias        int32(120) (100)          
                                                                O: conv2d_47_output      int8(1x20x20x120) (101)   
------ ---------------- ----- -------------- --------- -------- ------------------------ ------------------------- 
26     conv2d_49        48    Conv2D         588120    6360     I: conv2d_47_output      int8(1x20x20x120) (101)   
                                                                S: conv2d_49_scratch0                              
                                                                W: conv2d_49_weights     int8(1x7x7x120) (107)     
                                                                W: conv2d_49_bias        int32(120) (104)          
                                                                O: conv2d_49_output      int8(1x10x10x120) (105)   
------ ---------------- ----- -------------- --------- -------- ------------------------ ------------------------- 
27     conv2d_51        51    Conv2D         960080    9920     I: conv2d_49_output      int8(1x10x10x120) (105)   
                                                                S: conv2d_51_scratch0                              
                                                                W: conv2d_51_weights     int8(80x1x1x120) (111)    
                                                                W: conv2d_51_bias        int32(80) (108)           
                                                                O: conv2d_51_output      int8(1x10x10x80) (109)    
------ ---------------- ----- -------------- --------- -------- ------------------------ ------------------------- 
28     conv2d_53        53    Conv2D         1920240   20160    I: conv2d_51_output      int8(1x10x10x80) (109)    
                                                                S: conv2d_53_scratch0                              
                                                                W: conv2d_53_weights     int8(240x1x1x80) (115)    
                                                                W: conv2d_53_bias        int32(240) (112)          
                                                                O: conv2d_53_output      int8(1x10x10x240) (113)   
------ ---------------- ----- -------------- --------- -------- ------------------------ ------------------------- 
29     conv2d_55        54    Conv2D         216240    3120     I: conv2d_53_output      int8(1x10x10x240) (113)   
                                                                S: conv2d_55_scratch0                              
                                                                W: conv2d_55_weights     int8(1x3x3x240) (119)     
                                                                W: conv2d_55_bias        int32(240) (116)          
                                                                O: conv2d_55_output      int8(1x10x10x240) (117)   
------ ---------------- ----- -------------- --------- -------- ------------------------ ------------------------- 
30     conv2d_57        57    Conv2D         1920080   19520    I: conv2d_55_output      int8(1x10x10x240) (117)   
                                                                S: conv2d_57_scratch0                              
                                                                W: conv2d_57_weights     int8(80x1x1x240) (123)    
                                                                W: conv2d_57_bias        int32(80) (120)           
                                                                O: conv2d_57_output      int8(1x10x10x80) (121)    
------ ---------------- ----- -------------- --------- -------- ------------------------ ------------------------- 
31     eltwise_58       58    Eltwise/add    8000      0        I: conv2d_57_output      int8(1x10x10x80) (121)    
                                                                I: conv2d_51_output      int8(1x10x10x80) (121)    
                                                                O: eltwise_58_output     int8(1x10x10x80) (213)    
------ ---------------- ----- -------------- --------- -------- ------------------------ ------------------------- 
32     conv2d_60        60    Conv2D         1920240   20160    I: eltwise_58_output     int8(1x10x10x80) (213)    
                                                                S: conv2d_60_scratch0                              
                                                                W: conv2d_60_weights     int8(240x1x1x80) (131)    
                                                                W: conv2d_60_bias        int32(240) (128)          
                                                                O: conv2d_60_output      int8(1x10x10x240) (129)   
------ ---------------- ----- -------------- --------- -------- ------------------------ ------------------------- 
33     conv2d_62        61    Conv2D         1176240   12720    I: conv2d_60_output      int8(1x10x10x240) (129)   
                                                                S: conv2d_62_scratch0                              
                                                                W: conv2d_62_weights     int8(1x7x7x240) (135)     
                                                                W: conv2d_62_bias        int32(240) (132)          
                                                                O: conv2d_62_output      int8(1x10x10x240) (133)   
------ ---------------- ----- -------------- --------- -------- ------------------------ ------------------------- 
34     conv2d_64        64    Conv2D         1920080   19520    I: conv2d_62_output      int8(1x10x10x240) (133)   
                                                                S: conv2d_64_scratch0                              
                                                                W: conv2d_64_weights     int8(80x1x1x240) (139)    
                                                                W: conv2d_64_bias        int32(80) (136)           
                                                                O: conv2d_64_output      int8(1x10x10x80) (137)    
------ ---------------- ----- -------------- --------- -------- ------------------------ ------------------------- 
35     eltwise_65       65    Eltwise/add    8000      0        I: conv2d_64_output      int8(1x10x10x80) (137)    
                                                                I: eltwise_58_output     int8(1x10x10x80) (137)    
                                                                O: eltwise_65_output     int8(1x10x10x80) (214)    
------ ---------------- ----- -------------- --------- -------- ------------------------ ------------------------- 
36     conv2d_67        67    Conv2D         2560320   26880    I: eltwise_65_output     int8(1x10x10x80) (214)    
                                                                S: conv2d_67_scratch0                              
                                                                W: conv2d_67_weights     int8(320x1x1x80) (143)    
                                                                W: conv2d_67_bias        int32(320) (140)          
                                                                O: conv2d_67_output      int8(1x10x10x320) (141)   
------ ---------------- ----- -------------- --------- -------- ------------------------ ------------------------- 
37     conv2d_69        68    Conv2D         288320    4160     I: conv2d_67_output      int8(1x10x10x320) (141)   
                                                                S: conv2d_69_scratch0                              
                                                                W: conv2d_69_weights     int8(1x3x3x320) (147)     
                                                                W: conv2d_69_bias        int32(320) (144)          
                                                                O: conv2d_69_output      int8(1x10x10x320) (145)   
------ ---------------- ----- -------------- --------- -------- ------------------------ ------------------------- 
38     conv2d_71        71    Conv2D         3072096   31104    I: conv2d_69_output      int8(1x10x10x320) (145)   
                                                                S: conv2d_71_scratch0                              
                                                                W: conv2d_71_weights     int8(96x1x1x320) (151)    
                                                                W: conv2d_71_bias        int32(96) (148)           
                                                                O: conv2d_71_output      int8(1x10x10x96) (149)    
------ ---------------- ----- -------------- --------- -------- ------------------------ ------------------------- 
39     conv2d_73        73    Conv2D         2765088   28800    I: conv2d_71_output      int8(1x10x10x96) (149)    
                                                                S: conv2d_73_scratch0                              
                                                                W: conv2d_73_weights     int8(288x1x1x96) (155)    
                                                                W: conv2d_73_bias        int32(288) (152)          
                                                                O: conv2d_73_output      int8(1x10x10x288) (153)   
------ ---------------- ----- -------------- --------- -------- ------------------------ ------------------------- 
40     conv2d_75        74    Conv2D         720288    8352     I: conv2d_73_output      int8(1x10x10x288) (153)   
                                                                S: conv2d_75_scratch0                              
                                                                W: conv2d_75_weights     int8(1x5x5x288) (159)     
                                                                W: conv2d_75_bias        int32(288) (156)          
                                                                O: conv2d_75_output      int8(1x10x10x288) (157)   
------ ---------------- ----- -------------- --------- -------- ------------------------ ------------------------- 
41     conv2d_77        77    Conv2D         2764896   28032    I: conv2d_75_output      int8(1x10x10x288) (157)   
                                                                S: conv2d_77_scratch0                              
                                                                W: conv2d_77_weights     int8(96x1x1x288) (163)    
                                                                W: conv2d_77_bias        int32(96) (160)           
                                                                O: conv2d_77_output      int8(1x10x10x96) (161)    
------ ---------------- ----- -------------- --------- -------- ------------------------ ------------------------- 
42     eltwise_78       78    Eltwise/add    9600      0        I: conv2d_77_output      int8(1x10x10x96) (161)    
                                                                I: conv2d_71_output      int8(1x10x10x96) (161)    
                                                                O: eltwise_78_output     int8(1x10x10x96) (215)    
------ ---------------- ----- -------------- --------- -------- ------------------------ ------------------------- 
43     conv2d_80        80    Conv2D         2765088   28800    I: eltwise_78_output     int8(1x10x10x96) (215)    
                                                                S: conv2d_80_scratch0                              
                                                                W: conv2d_80_weights     int8(288x1x1x96) (171)    
                                                                W: conv2d_80_bias        int32(288) (168)          
                                                                O: conv2d_80_output      int8(1x10x10x288) (169)   
------ ---------------- ----- -------------- --------- -------- ------------------------ ------------------------- 
44     conv2d_82        81    Conv2D         720288    8352     I: conv2d_80_output      int8(1x10x10x288) (169)   
                                                                S: conv2d_82_scratch0                              
                                                                W: conv2d_82_weights     int8(1x5x5x288) (175)     
                                                                W: conv2d_82_bias        int32(288) (172)          
                                                                O: conv2d_82_output      int8(1x10x10x288) (173)   
------ ---------------- ----- -------------- --------- -------- ------------------------ ------------------------- 
45     conv2d_84        84    Conv2D         2764896   28032    I: conv2d_82_output      int8(1x10x10x288) (173)   
                                                                S: conv2d_84_scratch0                              
                                                                W: conv2d_84_weights     int8(96x1x1x288) (179)    
                                                                W: conv2d_84_bias        int32(96) (176)           
                                                                O: conv2d_84_output      int8(1x10x10x96) (177)    
------ ---------------- ----- -------------- --------- -------- ------------------------ ------------------------- 
46     eltwise_85       85    Eltwise/add    9600      0        I: conv2d_84_output      int8(1x10x10x96) (177)    
                                                                I: eltwise_78_output     int8(1x10x10x96) (177)    
                                                                O: eltwise_85_output     int8(1x10x10x96) (216)    
------ ---------------- ----- -------------- --------- -------- ------------------------ ------------------------- 
47     conv2d_87        87    Conv2D         3686784   38400    I: eltwise_85_output     int8(1x10x10x96) (216)    
                                                                S: conv2d_87_scratch0                              
                                                                W: conv2d_87_weights     int8(384x1x1x96) (183)    
                                                                W: conv2d_87_bias        int32(384) (180)          
                                                                O: conv2d_87_output      int8(1x10x10x384) (181)   
------ ---------------- ----- -------------- --------- -------- ------------------------ ------------------------- 
48     conv2d_89        88    Conv2D         470784    20352    I: conv2d_87_output      int8(1x10x10x384) (181)   
                                                                S: conv2d_89_scratch0                              
                                                                W: conv2d_89_weights     int8(1x7x7x384) (187)     
                                                                W: conv2d_89_bias        int32(384) (184)          
                                                                O: conv2d_89_output      int8(1x5x5x384) (185)     
------ ---------------- ----- -------------- --------- -------- ------------------------ ------------------------- 
49     conv2d_91        91    Conv2D         1843392   74496    I: conv2d_89_output      int8(1x5x5x384) (185)     
                                                                S: conv2d_91_scratch0                              
                                                                W: conv2d_91_weights     int8(192x1x1x384) (191)   
                                                                W: conv2d_91_bias        int32(192) (188)          
                                                                O: conv2d_91_output      int8(1x5x5x192) (189)     
------ ---------------- ----- -------------- --------- -------- ------------------------ ------------------------- 
50     conv2d_93        93    Conv2D         2765376   112896   I: conv2d_91_output      int8(1x5x5x192) (189)     
                                                                S: conv2d_93_scratch0                              
                                                                W: conv2d_93_weights     int8(576x1x1x192) (195)   
                                                                W: conv2d_93_bias        int32(576) (192)          
                                                                O: conv2d_93_output      int8(1x5x5x576) (193)     
------ ---------------- ----- -------------- --------- -------- ------------------------ ------------------------- 
51     conv2d_95        94    Conv2D         706176    30528    I: conv2d_93_output      int8(1x5x5x576) (193)     
                                                                S: conv2d_95_scratch0                              
                                                                W: conv2d_95_weights     int8(1x7x7x576) (199)     
                                                                W: conv2d_95_bias        int32(576) (196)          
                                                                O: conv2d_95_output      int8(1x5x5x576) (197)     
------ ---------------- ----- -------------- --------- -------- ------------------------ ------------------------- 
52     conv2d_97        97    Conv2D         2764992   111360   I: conv2d_95_output      int8(1x5x5x576) (197)     
                                                                S: conv2d_97_scratch0                              
                                                                W: conv2d_97_weights     int8(192x1x1x576) (203)   
                                                                W: conv2d_97_bias        int32(192) (200)          
                                                                O: conv2d_97_output      int8(1x5x5x192) (201)     
------ ---------------- ----- -------------- --------- -------- ------------------------ ------------------------- 
53     eltwise_98       98    Eltwise/add    4800      0        I: conv2d_97_output      int8(1x5x5x192) (201)     
                                                                I: conv2d_91_output      int8(1x5x5x192) (201)     
                                                                O: eltwise_98_output     int8(1x5x5x192) (217)     
------ ---------------- ----- -------------- --------- -------- ------------------------ ------------------------- 
54     conv2d_100       100   Conv2D         2765376   112896   I: eltwise_98_output     int8(1x5x5x192) (217)     
                                                                S: conv2d_100_scratch0                             
                                                                W: conv2d_100_weights    int8(576x1x1x192) (3)     
                                                                W: conv2d_100_bias       int32(576) (0)            
                                                                O: conv2d_100_output     int8(1x5x5x576) (1)       
------ ---------------- ----- -------------- --------- -------- ------------------------ ------------------------- 
55     conv2d_102       101   Conv2D         360576    16704    I: conv2d_100_output     int8(1x5x5x576) (1)       
                                                                S: conv2d_102_scratch0                             
                                                                W: conv2d_102_weights    int8(1x5x5x576) (7)       
                                                                W: conv2d_102_bias       int32(576) (4)            
                                                                O: conv2d_102_output     int8(1x5x5x576) (5)       
------ ---------------- ----- -------------- --------- -------- ------------------------ ------------------------- 
56     conv2d_104       104   Conv2D         2764992   111360   I: conv2d_102_output     int8(1x5x5x576) (5)       
                                                                S: conv2d_104_scratch0                             
                                                                W: conv2d_104_weights    int8(192x1x1x576) (11)    
                                                                W: conv2d_104_bias       int32(192) (8)            
                                                                O: conv2d_104_output     int8(1x5x5x192) (9)       
------ ---------------- ----- -------------- --------- -------- ------------------------ ------------------------- 
57     eltwise_105      105   Eltwise/add    4800      0        I: conv2d_104_output     int8(1x5x5x192) (9)       
                                                                I: eltwise_98_output     int8(1x5x5x192) (9)       
                                                                O: eltwise_105_output    int8(1x5x5x192) (208)     
------ ---------------- ----- -------------- --------- -------- ------------------------ ------------------------- 
58     conv2d_107       107   Conv2D         3687168   150528   I: eltwise_105_output    int8(1x5x5x192) (208)     
                                                                S: conv2d_107_scratch0                             
                                                                W: conv2d_107_weights    int8(768x1x1x192) (15)    
                                                                W: conv2d_107_bias       int32(768) (12)           
                                                                O: conv2d_107_output     int8(1x5x5x768) (13)      
------ ---------------- ----- -------------- --------- -------- ------------------------ ------------------------- 
59     conv2d_109       108   Conv2D         480768    22272    I: conv2d_107_output     int8(1x5x5x768) (13)      
                                                                S: conv2d_109_scratch0                             
                                                                W: conv2d_109_weights    int8(1x5x5x768) (19)      
                                                                W: conv2d_109_bias       int32(768) (16)           
                                                                O: conv2d_109_output     int8(1x5x5x768) (17)      
------ ---------------- ----- -------------- --------- -------- ------------------------ ------------------------- 
60     conv2d_111       111   Conv2D         6144320   247040   I: conv2d_109_output     int8(1x5x5x768) (17)      
                                                                S: conv2d_111_scratch0                             
                                                                W: conv2d_111_weights    int8(320x1x1x768) (23)    
                                                                W: conv2d_111_bias       int32(320) (20)           
                                                                O: conv2d_111_output     int8(1x5x5x320) (21)      
------ ---------------- ----- -------------- --------- -------- ------------------------ ------------------------- 
61     pool_112         112   Pool           8000      0        I: conv2d_111_output     int8(1x5x5x320) (21)      
                                                                O: pool_112_output       int8(1x1x1x320) (219)     
------ ---------------- ----- -------------- --------- -------- ------------------------ ------------------------- 
62     conv2d_113       113   Conv2D         321000    324000   I: pool_112_output       int8(1x1x1x320) (219)     
                                                                S: conv2d_113_scratch0                             
                                                                W: conv2d_113_weights    int8(1000x1x1x320) (27)   
                                                                W: conv2d_113_bias       int32(1000) (24)          
                                                                O: conv2d_113_output     int8(1x1x1x1000) (25)     
------ ---------------- ----- -------------- --------- -------- ------------------------ ------------------------- 



Number of operations per c-layer
------- ------ --------------------------- ------------- ------------ 
c_id    m_id   name (type)                           #op         type 
------- ------ --------------------------- ------------- ------------ 
0       0      conv2d_1 (Conv2D)               5,529,632   smul_s8_s8 
1       2      conv2d_3 (Conv2D)               1,843,232   smul_s8_s8 
2       5      conv2d_5 (Conv2D)               3,276,816   smul_s8_s8 
3       7      conv2d_7 (Conv2D)               4,915,248   smul_s8_s8 
4       8      conv2d_9 (Conv2D)               3,763,248   smul_s8_s8 
5       11     conv2d_11 (Conv2D)              1,843,224   smul_s8_s8 
6       13     conv2d_13 (Conv2D)              4,608,120   smul_s8_s8 
7       14     conv2d_15 (Conv2D)              1,728,120   smul_s8_s8 
8       17     conv2d_17 (Conv2D)              4,608,024   smul_s8_s8 
9       18     eltwise_18 (Eltwise/add)           38,400     op_s8_s8 
10      20     conv2d_20 (Conv2D)              3,686,496   smul_s8_s8 
11      21     conv2d_22 (Conv2D)              3,840,096   smul_s8_s8 
12      24     conv2d_24 (Conv2D)              3,686,424   smul_s8_s8 
13      25     eltwise_25 (Eltwise/add)           38,400     op_s8_s8 
14      27     conv2d_27 (Conv2D)              4,608,120   smul_s8_s8 
15      28     conv2d_29 (Conv2D)              2,352,120   smul_s8_s8 
16      31     conv2d_31 (Conv2D)              1,920,040   smul_s8_s8 
17      33     conv2d_33 (Conv2D)              2,560,160   smul_s8_s8 
18      34     conv2d_35 (Conv2D)                576,160   smul_s8_s8 
19      37     conv2d_37 (Conv2D)              2,560,040   smul_s8_s8 
20      38     eltwise_38 (Eltwise/add)           16,000     op_s8_s8 
21      40     conv2d_40 (Conv2D)              2,560,160   smul_s8_s8 
22      41     conv2d_42 (Conv2D)              3,136,160   smul_s8_s8 
23      44     conv2d_44 (Conv2D)              2,560,040   smul_s8_s8 
24      45     eltwise_45 (Eltwise/add)           16,000     op_s8_s8 
25      47     conv2d_47 (Conv2D)              1,920,120   smul_s8_s8 
26      48     conv2d_49 (Conv2D)                588,120   smul_s8_s8 
27      51     conv2d_51 (Conv2D)                960,080   smul_s8_s8 
28      53     conv2d_53 (Conv2D)              1,920,240   smul_s8_s8 
29      54     conv2d_55 (Conv2D)                216,240   smul_s8_s8 
30      57     conv2d_57 (Conv2D)              1,920,080   smul_s8_s8 
31      58     eltwise_58 (Eltwise/add)            8,000     op_s8_s8 
32      60     conv2d_60 (Conv2D)              1,920,240   smul_s8_s8 
33      61     conv2d_62 (Conv2D)              1,176,240   smul_s8_s8 
34      64     conv2d_64 (Conv2D)              1,920,080   smul_s8_s8 
35      65     eltwise_65 (Eltwise/add)            8,000     op_s8_s8 
36      67     conv2d_67 (Conv2D)              2,560,320   smul_s8_s8 
37      68     conv2d_69 (Conv2D)                288,320   smul_s8_s8 
38      71     conv2d_71 (Conv2D)              3,072,096   smul_s8_s8 
39      73     conv2d_73 (Conv2D)              2,765,088   smul_s8_s8 
40      74     conv2d_75 (Conv2D)                720,288   smul_s8_s8 
41      77     conv2d_77 (Conv2D)              2,764,896   smul_s8_s8 
42      78     eltwise_78 (Eltwise/add)            9,600     op_s8_s8 
43      80     conv2d_80 (Conv2D)              2,765,088   smul_s8_s8 
44      81     conv2d_82 (Conv2D)                720,288   smul_s8_s8 
45      84     conv2d_84 (Conv2D)              2,764,896   smul_s8_s8 
46      85     eltwise_85 (Eltwise/add)            9,600     op_s8_s8 
47      87     conv2d_87 (Conv2D)              3,686,784   smul_s8_s8 
48      88     conv2d_89 (Conv2D)                470,784   smul_s8_s8 
49      91     conv2d_91 (Conv2D)              1,843,392   smul_s8_s8 
50      93     conv2d_93 (Conv2D)              2,765,376   smul_s8_s8 
51      94     conv2d_95 (Conv2D)                706,176   smul_s8_s8 
52      97     conv2d_97 (Conv2D)              2,764,992   smul_s8_s8 
53      98     eltwise_98 (Eltwise/add)            4,800     op_s8_s8 
54      100    conv2d_100 (Conv2D)             2,765,376   smul_s8_s8 
55      101    conv2d_102 (Conv2D)               360,576   smul_s8_s8 
56      104    conv2d_104 (Conv2D)             2,764,992   smul_s8_s8 
57      105    eltwise_105 (Eltwise/add)           4,800     op_s8_s8 
58      107    conv2d_107 (Conv2D)             3,687,168   smul_s8_s8 
59      108    conv2d_109 (Conv2D)               480,768   smul_s8_s8 
60      111    conv2d_111 (Conv2D)             6,144,320   smul_s8_s8 
61      112    pool_112 (Pool)                     8,000   smul_s8_s8 
62      113    conv2d_113 (Conv2D)               321,000   smul_s8_s8 
------- ------ --------------------------- ------------- ------------ 
total                                        126,047,704 

Number of operation types
---------------- ------------- ----------- 
operation type               #           % 
---------------- ------------- ----------- 
smul_s8_s8         125,894,104       99.9% 
op_s8_s8               153,600        0.1% 

Complexity report (model)
------ ------------- ------------------------- ------------------------- ------ 
m_id   name          c_macc                    c_rom                     c_id   
------ ------------- ------------------------- ------------------------- ------ 
0      input         ||||||||||||||     4.4%   |                  0.1%   [0]    
2      pad_2         |||||              1.5%   |                  0.0%   [1]    
5      conv2d_5      ||||||||           2.6%   |                  0.0%   [2]    
7      conv2d_7      ||||||||||||       3.9%   |                  0.1%   [3]    
8      pad_8         ||||||||||         3.0%   |                  0.1%   [4]    
11     conv2d_11     |||||              1.5%   |                  0.1%   [5]    
13     conv2d_13     ||||||||||||       3.7%   |                  0.2%   [6]    
14     pad_14        |||||              1.4%   |                  0.1%   [7]    
17     conv2d_17     ||||||||||||       3.7%   |                  0.2%   [8]    
18     eltwise_18    |                  0.0%   |                  0.0%   [9]    
20     conv2d_20     |||||||||          2.9%   |                  0.2%   [10]   
21     pad_21        ||||||||||         3.0%   |                  0.2%   [11]   
24     conv2d_24     |||||||||          2.9%   |                  0.1%   [12]   
25     eltwise_25    |                  0.0%   |                  0.0%   [13]   
27     conv2d_27     ||||||||||||       3.7%   |                  0.2%   [14]   
28     pad_28        ||||||             1.9%   |                  0.4%   [15]   
31     conv2d_31     |||||              1.5%   |                  0.3%   [16]   
33     conv2d_33     |||||||            2.0%   |                  0.4%   [17]   
34     pad_34        ||                 0.5%   |                  0.1%   [18]   
37     conv2d_37     |||||||            2.0%   |                  0.4%   [19]   
38     eltwise_38    |                  0.0%   |                  0.0%   [20]   
40     conv2d_40     |||||||            2.0%   |                  0.4%   [21]   
41     pad_41        ||||||||           2.5%   |                  0.5%   [22]   
44     conv2d_44     |||||||            2.0%   |                  0.4%   [23]   
45     eltwise_45    |                  0.0%   |                  0.0%   [24]   
47     conv2d_47     |||||              1.5%   |                  0.3%   [25]   
48     pad_48        ||                 0.5%   |                  0.4%   [26]   
51     conv2d_51     |||                0.8%   |                  0.6%   [27]   
53     conv2d_53     |||||              1.5%   |                  1.1%   [28]   
54     pad_54        |                  0.2%   |                  0.2%   [29]   
57     conv2d_57     |||||              1.5%   |                  1.1%   [30]   
58     eltwise_58    |                  0.0%   |                  0.0%   [31]   
60     conv2d_60     |||||              1.5%   |                  1.1%   [32]   
61     pad_61        |||                0.9%   |                  0.7%   [33]   
64     conv2d_64     |||||              1.5%   |                  1.1%   [34]   
65     eltwise_65    |                  0.0%   |                  0.0%   [35]   
67     conv2d_67     |||||||            2.0%   ||                 1.5%   [36]   
68     pad_68        |                  0.2%   |                  0.2%   [37]   
71     conv2d_71     ||||||||           2.4%   ||                 1.8%   [38]   
73     conv2d_73     |||||||            2.2%   ||                 1.6%   [39]   
74     pad_74        ||                 0.6%   |                  0.5%   [40]   
77     conv2d_77     |||||||            2.2%   ||                 1.6%   [41]   
78     eltwise_78    |                  0.0%   |                  0.0%   [42]   
80     conv2d_80     |||||||            2.2%   ||                 1.6%   [43]   
81     pad_81        ||                 0.6%   |                  0.5%   [44]   
84     conv2d_84     |||||||            2.2%   ||                 1.6%   [45]   
85     eltwise_85    |                  0.0%   |                  0.0%   [46]   
87     conv2d_87     ||||||||||         2.9%   ||                 2.2%   [47]   
88     pad_88        ||                 0.4%   |                  1.2%   [48]   
91     conv2d_91     |||||              1.5%   ||||               4.2%   [49]   
93     conv2d_93     |||||||            2.2%   ||||||             6.4%   [50]   
94     pad_94        ||                 0.6%   ||                 1.7%   [51]   
97     conv2d_97     |||||||            2.2%   ||||||             6.3%   [52]   
98     eltwise_98    |                  0.0%   |                  0.0%   [53]   
100    conv2d_100    |||||||            2.2%   ||||||             6.4%   [54]   
101    pad_101       |                  0.3%   |                  1.0%   [55]   
104    conv2d_104    |||||||            2.2%   ||||||             6.3%   [56]   
105    eltwise_105   |                  0.0%   |                  0.0%   [57]   
107    conv2d_107    ||||||||||         2.9%   |||||||            8.6%   [58]   
108    pad_108       ||                 0.4%   ||                 1.3%   [59]   
111    conv2d_111    ||||||||||||||||   4.9%   ||||||||||||      14.1%   [60]   
112    pool_112      |                  0.0%   |                  0.0%   [61]   
113    conv2d_113    |                  0.3%   ||||||||||||||||  18.4%   [62]   
------ ------------- ------------------------- ------------------------- ------ 
macc=126,047,704 weights=1,757,048 act=318,676 ram_io=0
 
 Requested memory size per segment ("stm32h7" series)
 ----------------------------- -------- ----------- -------- --------- 
 module                            text      rodata     data       bss 
 ----------------------------- -------- ----------- -------- --------- 
 network.o                        4,804      61,200   25,580       760 
 NetworkRuntime900_CM7_GCC.a     20,072           0        0         0 
 network_data.o                      52          16       88         0 
 lib (toolchain)*                     0           0        0         0 
 ----------------------------- -------- ----------- -------- --------- 
 RT total**                      24,928      61,216   25,668       760 
 ----------------------------- -------- ----------- -------- --------- 
 weights                              0   1,757,048        0         0 
 activations                          0           0        0   318,676 
 io                                   0           0        0         0 
 ----------------------------- -------- ----------- -------- --------- 
 TOTAL                           24,928   1,818,264   25,668   319,436 
 ----------------------------- -------- ----------- -------- --------- 
 *  toolchain objects (libm/libgcc*)
 ** RT - AI runtime objects (kernels+infrastructure)
  
  Summary per type of memory device
  -----------------------------------------------
                   FLASH      %       RAM      % 
  -----------------------------------------------
  RT total       111,812   6.0%    26,428   7.7% 
  -----------------------------------------------
  TOTAL        1,868,860          345,104        
  -----------------------------------------------

